Final AI Code/model/keypoint_classifier/keypoint_classifier.tflite (tflite, 6836 bytes, 6 tensors)

arith.constant f4 [10, 10]
-0.22042914 -0.71209955 -0.7950762 0.16336583 -0.42002708 -0.79474354 0.007730202 -1.0411367
0.20388448 -1.3507701 -0.16136853 -0.26187938 -0.90667903 -0.64572847 -0.5906333 -0.30375963
-0.65506774 -1.0167166 -0.45638952 -1.1315331 0.43909296 -0.7622223 -0.573462 -0.33263105
0.25141725 -0.8938146 -0.012606463 -1.5409309 0.09529152 -1.1293432 -0.6942666 0.72318393
-0.005760744 0.673683 0.061563272 0.01926208 0.5067832 -0.30784053 -0.67228585 -0.25054032
0.40105143 0.6330282 0.10921897 -0.66816336 -0.5806204 0.30655214 -1.129937 0.30468598
0.45014212 -0.4182896 -0.44141647 -0.420297 -0.8354263 0.3040221 -0.524765 0.6011909
0.1204958 -0.89609563 0.4068088 0.7118663 -0.1915969 0.006658348 0.34284377 0.51193744
0.46353042 -0.1342105 -0.4234915 0.23749667 -0.062318645 -1.0702485 -0.24721791 -0.35229906
0.5560068 -1.7467679 0.6953611 -0.39449805 -1.6690838 0.47624287 -0.46748438 -0.20229849
-0.39740703 0.028734231 -1.5627717 0.0047084214 0.37277827 -0.36034757 -0.025698338 0.3749287
-1.3035924 0.70540965 -0.43591344 -0.14239582 0.33447453 -0.364346 -0.9690487 -0.48360458
0.587067 -1.3341839 0.69200116 0.49449086
00000000: 2db8 61be 284c 36bf 1d8a 4bbf 5f49 273e
00000010: ca0d d7be 5074 4bbf a24d fd3b f843 85bf
00000020: 18c7 503e 09e6 acbf cb3d 25be 0e15 86be
00000030: 1e1c 68bf 764e 25bf be33 17bf 6286 9bbe
00000040: 85b2 27bf c523 82bf e3ab e9be 14d6 90bf
00000050: cbd0 e03e 0021 43bf 68ce 12bf 9e4e aabe
00000060: c3b9 803e 09d1 64bf 578b 4ebc 393d c5bf
00000070: 3328 c33d 518e 90bf 75bb 31bf 9522 393f
00000080: a0c4 bcbb 7d76 2c3f c529 7c3d 82cb 9d3c
00000090: 8bbc 013f 469d 9dbe ed1a 2cbf d246 80be
000000a0: 9d56 cd3e 230e 223f 32ae df3d c10c 2bbf
000000b0: 8aa3 14bf 67f4 9c3e c7a1 90bf cdff 9b3e
000000c0: 0779 e63e 0e2a d6be 5701 e2be 2b31 d7be
000000d0: 7fde 55bf c9a8 9b3e 0057 06bf a6e7 193f
000000e0: 81c6 f63d 8666 65bf 3e49 d03e df3c 363f
000000f0: fa31 44be 452e da3b 3889 af3e 550e 033f
00000100: dc53 ed3e 7a6e 09be e1d3 d8be 5432 733e
00000110: d641 7fbd e7fd 88bf b126 7dbe 8b60 b4be
00000120: 7656 0e3f 1796 dfbf 2f03 323f a6fb c9be
00000130: 8aa4 d5bf 1bd6 f33e 1d5a efbe 5627 4fbe
00000140: ef78 cbbe 0d64 eb3c e708 c8bf 1a49 9a3b
00000150: cbdc be3e 7a7f b8be 5285 d2bc a8f6 bf3e
00000160: 1edc a6bf ba95 343f 0c30 dfbe 36d0 11be
00000170: 3f40 ab3e 8f8b babe 9313 78bf 059b f7be
00000180: 064a 163f 8ac6 aabf fd26 313f e82d fd3e

arith.constant1 f4 [10, 20]
-0.07855158 0.22630553 0.07978603 -0.75628597 -0.2436202 0.05645632 0.43931317 -0.54895073
-0.35258222 -0.11022732 0.46684968 -0.30298167 -0.28949073 0.25690222 -0.7881193 -0.21447583
-0.030899694 0.15163963 -0.6145341 -0.21485351 0.8212165 0.52039444 0.7803797 0.3304753
0.43414664 -0.70590353 0.614045 0.11547977 -0.16444424 0.5419819 0.5903681 0.16150437
0.10359575 -0.32669586 0.19791244 0.47492865 0.74101585 0.7571949 0.25094453 -0.13362513
0.8728491 0.96025884 -0.0636634 -0.74216086 -0.047825884 -0.40693945 0.22989677 -0.033834837
-0.15775292 0.85332435 0.17790091 0.16894162 0.8699498 0.65070087 1.0881236 0.5337382
-0.028731098 0.8602844 0.118527986 0.25421312 0.46526253 0.13508593 0.5902243 0.9142603
0.83591825 -0.2802366 0.32889318 1.0950842 0.85951805 0.16593988 0.51219 0.4785318
1.4327059 0.10949068 0.57960844 0.9966418 0.43241462 -0.3382813 0.47723606 0.7505676
0.32576013 0.18127608 -0.0708178 0.1470324 0.18916199 -0.20470132 0.2979373 -0.1369014
0.49979642 0.1033061 0.16023643 0.7780271 0.23497006 0.066239774 0.65208316 0.43387353
-0.93897426 -0.11354849 0.23956436 0.23025824 0.8007467 0.093709856 0.49093077 0.6522382
0.120625824 0.4149079 0.10834937 0.059277453 0.34398654 0.11750834 0.8121721 -0.49888116
-0.5732652 0.53943896 0.76984894 -0.046366256 0.40617436 -1.2102644 0.15753232 0.28155732
-0.29661244 0.20207651 -0.29101235 0.917393 0.22008921 -0.014157297 0.06098378 -0.8038877
0.5737301 0.0519233 0.11829545 -0.024802422 0.024519674 -0.014321046 -0.14304242 0.730506
0.51433736 1.3361895 0.7859203 0.87035143 0.51612973 0.20159164 0.4881008 -0.23146045
-0.17738423 -0.76878464 0.9712601 0.32537663 0.030571241 0.5656524 0.6290605 0.2895096
-0.453167 0.18613972 -0.24045637 -0.22973576 -0.22482254 -0.4843259 -0.72331256 -0.24059255
0.06435788 0.26609492 -0.04230436 -0.4231851 -0.3402893 0.9089494 0.049947143 -0.104191765
-0.06430099 0.11121636 0.73686725 -0.7981375 -0.44483963 0.19475564 -0.7466221 -0.26081762
0.25419328 0.6046257 0.103039004 0.35461825 -0.16376115 0.048403706 0.69822025 0.13324182
0.7991092 1.1419059 0.08408357 0.3933325 0.18260263 0.083779745 -0.8973222 0.08165505
-0.3004901 0.25669557 -0.036154345 -1.1501181 0.09207532 0.764154 0.57222736 0.12726662
00000000: a7df a0bd a3bc 673e dc66 a33d f59b 41bf
00000010: 9377 79be be3e 673d a8ed e03e 0988 0cbf
00000020: a885 b4be dcbe e1bd ec06 ef3e 6a20 9bbe
00000030: 2138 94be b088 833e 30c2 49bf 8d9f 5bbe
00000040: 5b21 fdbc 6b47 1b3e 1b52 1dbf 8f02 5cbe
00000050: 3f3b 523f 9238 053f f7c6 473f 0f34 a93e
00000060: 7848 de3e 18b6 34bf 0e32 1d3f a880 ec3d
00000070: 1264 28be 53bf 0a3f 5d22 173f 6761 253e
00000080: 022a d43d ae44 a7be 8fa9 4a3e d929 f33e
00000090: 37b3 3d3f 86d7 413f cd7b 803e 07d5 08be
000000a0: 0a73 5f3f 86d3 753f f561 82bd 41fe 3dbf
000000b0: 13e5 43bd 5e5a d0be 0f6a 6b3e 6696 0abd
000000c0: fb89 21be 7773 5a3f a82b 363e 08ff 2c3e
000000d0: 08b5 5e3f 5594 263f a247 8b3f 11a3 083f
000000e0: 7b5d ebbc 993b 5c3f cdbe f23d 3928 823e
000000f0: e436 ee3e f753 0a3e f118 173f f70c 6a3f
00000100: bdfe 553f 2c7b 8fbe b064 a83e b82b 8c3f
00000110: 6009 5c3f 25ec 293e e21e 033f 1f02 f53e
00000120: e862 b73f a63c e03d 3861 143f eb23 7f3f
00000130: 7365 dd3e 3533 adbe 4958 f43e 3325 403f
00000140: 08ca a63e 70a0 393e ec08 91bd a98f 163e
00000150: aeb3 413e 399d 51be 3d8b 983e e12f 0cbe
00000160: 51e5 ff3e 2692 d33d 0515 243e c92c 473f
00000170: fe9b 703e b8a8 873d ecee 263f ac24 de3e
00000180: 9e60 70bf 1c8c e8bd 5c50 753e d1c8 6b3e
00000190: bcfd 4c3f f4ea bf3d 475b fb3e 15f9 263f
000001a0: ac0a f73d cf6e d43e 46e6 dd3d eacc 723d
000001b0: 011f b03e 36a8 f03d 83ea 4f3f 5a6d ffbe
000001c0: 82c1 12bf ac18 0a3f d214 453f 8bea 3dbd
000001d0: 16f6 cf3e f2e9 9abf 2750 213e 4828 903e
000001e0: 96dd 97be 25ed 4e3e 92ff 94be 45da 6a3f
000001f0: 115f 613e 02f4 67bc 21ca 793d 96cb 4dbf
00000200: fadf 123f 87ad 543d e344 f23d 732e cbbc
00000210: 7cdd c83c d2a2 6abc b679 12be 7102 3b3f
00000220: 9dab 033f 4208 ab3f 1332 493f 5acf 5e3f
00000230: 1421 043f 0a6e 4e3e 59e8 f93e f803 6dbe
00000240: 36a4 35be 12cf 44bf 80a4 783f c497 a63e
00000250: 8a70 fa3c 98ce 103f 1c0a 213f 9a3a 943e
00000260: 8105 e8be 699b 3e3e 323a 76be da3f 6bbe
00000270: e137 66be 90f9 f7be 032b 39bf e55d 76be
00000280: 10ce 833d 983d 883e 5647 2dbd b8ab d8be
00000290: 663a aebe e8b0 683f 6095 4c3d 7e62 d5bd
000002a0: 3db0 83bd 67c5 e33d 55a3 3c3f bd52 4cbf
000002b0: 05c2 e3be 066e 473e a022 3fbf e389 85be
000002c0: 9f25 823e c0c8 1a3f 1d06 d33d 8690 b53e
000002d0: 01b1 27be f742 463d 90be 323f 8b70 083e
000002e0: 6c92 4c3f f929 923f 0234 ac3d e162 c93e
000002f0: 2ffc 3a3e b794 ab3d e8b6 65bf c33a a73d
00000300: d7d9 99be 9a6d 833e 9416 14bd 1237 93bf
00000310: fc91 bc3d 999f 433f 7e7d 123f 2e52 023e

arith.constant2 f4 [10]
-0.20964256 -0.19410451 -0.20988613 -0.9142953 -0.13248686 0.31545845 -0.022660064 0.6985067
0.6530643 0.7363439
00000000: 8aac 56be 55c3 46be 64ec 56be 420f 6abf
00000010: a3aa 07be c583 a13e 99a1 b9bc 56d1 323f
00000020: 392f 273f 0981 3c3f

sequential_1/dense_1_2/BiasAdd/ReadVariableOp f4 [10]
-0.031164452 -0.65783376 0.54732454 -0.7886692 0.7263979 -0.31270278 -0.28372082 1.0609213
0.62921935 1.0790794
00000000: 984c ffbc cb67 28bf 761d 0c3f 3ae6 49bf
00000010: 36f5 393f 941a a0be db43 91be 45cc 873f
00000020: 8514 213f 461f 8a3f

sequential_1/dense_1/BiasAdd/ReadVariableOp f4 [20]
-0.62176126 -0.15915583 -0.017209379 -0.87331885 -0.58576995 -0.3794321 -0.4181116 -0.6616818
-0.92488056 -0.4675343 -0.52477604 0.123123705 -0.9288984 -0.15730786 -0.5242992 -0.85804844
-0.28171626 0.29460287 -0.70083886 -0.74793667
00000000: bf2b 1fbf bff9 22be affa 8cbc d391 5fbf
00000010: 05f5 15bf ed44 c2be b912 d6be fa63 29bf
00000020: f9c4 6cbf a860 efbe b957 06bf 4828 fc3d
00000030: 49cc 6dbf 5015 21be 7938 06bf 10a9 5bbf
00000040: 1d3d 90be 30d6 963e 2d6a 33bf c778 3fbf

sequential_1/dense_1/MatMul f4 [20, 42]
-0.13952436 -0.11001839 -0.04147638 -0.25625032 -0.021119222 0.2404586 0.15555385 0.20074901
0.16187626 0.28229946 -0.15681347 -0.67892116 -0.050885953 -0.07970043 -0.038660783 0.32382292
-0.08650049 0.46502557 0.041288365 -0.59922945 -0.03553415 -0.038779274 0.029542342 -0.10426423
-0.03820769 -0.20907678 0.0680641 -0.6146232 -0.14123397 -0.13552646 0.18317223 -0.27903414
0.33847445 -0.29740041 0.11891162 -0.31523317 0.05540787 0.005576134 -0.0440175 -0.09670565
0.10073928 -0.21157464 0.15694803 0.23734379 0.30365992 0.4795915 -0.16572785 0.4961635
0.014828338 0.38900384 -0.085626744 0.3130191 -0.23111439 0.052782066 -0.18577437 -0.15099193
-0.5841537 0.034120284 -0.45300695 0.022346858 -0.08447346 0.10244027 -0.039951105 -0.1670189
-0.035213813 -0.14720331 0.09886506 -0.6356182 -0.11589344 -0.055008583 -0.059128076 -0.06454233
0.12575617 -0.41736105 0.13768597 -0.89239776 -0.07783647 -0.5153664 -0.0009893274 -0.37728184
0.33062094 -0.64274585 0.20717728 -0.7783831 0.23220617 -0.03457886 0.2740265 0.12987222
-0.056195274 0.43739122 0.10099321 0.41332397 0.03185208 0.33494896 -0.3519339 0.4051455
0.101410575 0.29963574 0.25567874 0.10923492 0.5093669 -0.12952164 -0.27421182 0.38159958
0.1650812 0.21753018 0.11942446 -0.10134965 0.08339772 -1.1209815 0.10232008 0.3127223
0.14534448 0.27685672 0.5912058 -0.13069296 0.4734305 -0.748959 0.32935625 0.39691874
0.6267723 0.29544678 0.67167634 -0.1651494 0.44497475 -0.5633201 0.12652937 0.24342346
0.8750464 -0.2467715 0.56537503 -0.045087807 0.31335533 -0.25533158 0.15747543 -0.12794639
-0.13247626 0.058565754 -0.044948008 0.080246046 -0.21873605 0.025430098 -0.6370916 0.071648136
-0.12721035 0.07617152 0.04612219 0.1707162 0.14537069 -0.12996556 0.13625659 0.014538901
-0.036035545 -0.19580233 0.45947802 -0.041077044 0.37362468 -0.088205405 0.31646675 0.2235061
0.48733747 0.23018065 0.53263307 0.045546845 0.58747387 0.054136924 0.6099065 0.19542976
0.24289739 0.24108225 0.32808435 -0.3404005 0.25762454 -0.1426812 -0.031603 -0.2854954
0.31474996 -0.40608925 -0.07535241 0.29347715 0.06767754 0.31201303 -0.048971355 -0.039735083
-0.008577452 0.07114506 0.16484375 0.14826408 0.33946633 0.1919716 0.19110747 0.026638325
0.07745055 0.044337757 0.1306741 0.23379646 0.33881092 0.35439298 0.4700933 -0.13252248
0.5036956 -0.21579383 0.5610066 0.1560675 0.6616107 0.118462875 0.5707326 -0.066615656
0.72584754 -0.011493831 -0.2380389 -0.05027479 0.04058301 -0.32315475 0.06488799 -0.3225401
0.10323194 -0.56261337 0.11766602 -0.65803915 0.12776414 0.03255666 -0.0222469 0.025547775
0.014827362 0.04160583 -0.0057118516 0.028326508 0.057734765 0.27974 -0.024812667 0.10212093
-0.076388076 -0.10617651 -0.06791328 0.08093343 -0.009691429 0.62743497 -0.050206997 0.10429318
-0.03772926 -0.08853882 -0.10563992 -0.12605298 0.011334955 1.2727709 -0.010886552 0.2726427
-0.08598124 0.12704504 -0.13011469 0.1810077 -0.09702368 -0.0685873 -0.07878111 0.49405512
00000000: 79df 0ebe 5251 e1bd 23e3 29bd 3e33 83be
00000010: 3802 adbc c73a 763e 8249 1f3e 2691 4d3e
00000020: e4c2 253e 8e89 903e b693 20be c7cd 2dbf
00000030: ca6d 50bd fb39 a3bd c55a 1ebd 1ecc a53e
00000040: 2b27 b1bd d517 ee3e fd1d 293d 1a67 19bf
00000050: 428c 11bd 04d7 1ebd c802 f23c 7c88 d5bd
00000060: ab7f 1cbd 3918 56be 3165 8b3d f257 1dbf
00000070: a39f 10be 73c7 0abe 8091 3b3e 90dd 8ebe
00000080: 864c ad3e de44 98be ef87 f33d 3e66 a1be
00000090: 5df3 623d 01b8 b63b b24b 34bd 9d0d c6bd
000000a0: 6550 ce3d 06a7 58be fcb6 203e 400a 733e
000000b0: 5079 9b3e 048d f53e 90b4 29be 2409 fe3e
000000c0: 8ff2 723c 832b c73e 135d afbd 0a44 a03e
000000d0: 40a9 6cbe 0232 583d a33b 3ebe a19d 1abe
000000e0: 198b 15bf b6c1 0b3d 87f0 e7be c210 b73c
000000f0: 6c00 adbd 34cc d13d c5a3 23bd 0107 2bbe
00000100: 5c3c 10bd 77bc 16be c479 ca3d e0b7 22bf
00000110: 8a59 edbd ae50 61bd 4830 72bd c52e 84bd
00000120: 3ac6 003e 59b0 d5be 8dfd 0c3e 2e74 64bf
00000130: ba68 9fbd 0def 03bf 52ac 81ba 162b c1be
00000140: 2647 a93e fe8a 24bf 4826 543e 1d44 47bf
00000150: 74c7 6d3e 90a2 0dbd 344d 8c3e 39fd 043e
00000160: 042d 66bd bef1 df3e 87d5 ce3d 339f d33e
00000170: 5477 023d 6e7e ab3e ae30 b4be 3b6f cf3e
00000180: 59b0 cf3d db69 993e 53e8 823e 8fb6 df3d
00000190: df65 023f 52a1 04be 7e65 8cbe 0561 c33e
000001a0: 0c0b 293e 3bc0 5e3e d094 f43d 6890 cfbd
000001b0: 6ccc aa3d 527c 8fbf 318d d13d 231d a03e
000001c0: 2fd5 143e 2ac0 8d3e 4359 173f 60d4 05be
000001d0: 7c65 f23e c7bb 3fbf 62a1 a83e ef38 cb3e
000001e0: 2674 203f cd44 973e fbf2 2b3f ed1c 29be
000001f0: bbd3 e33e bf35 10bf ea90 013e 0044 793e
00000200: 0a03 603f abb1 7cbe 6bbc 103f fead 38bd
00000210: 1c70 a03e d2ba 82be 3d41 213e 6104 03be
00000220: dba7 07be a5e2 6f3d 671b 38bd 0a58 a43d
00000230: 58fc 5fbe c852 d03c 6f18 23bf 42bc 923d
00000240: 6e43 02be d0ff 9b3d 9fea 3c3d 3ad0 2e3e
00000250: 0edc 143e b115 05be d986 0b3e 9234 6e3c
00000260: 029a 13bd 6880 48be b440 eb3e 6740 28bd
00000270: bc4b bf3e 09a5 b4bd ee07 a23e c8de 643e
00000280: 4c84 f93e 7ab4 6b3e a45a 083f 548f 3a3d
00000290: b064 163f aebe 5d3d d522 1c3f bd1e 483e
000002a0: 18ba 783e 44de 763e acfa a73e f948 aebe
000002b0: 5de7 833e 051b 12be 2672 01bd 742c 92be
000002c0: e826 a13e eeea cfbe 5d52 9abd a342 963e
000002d0: 869a 8a3d 2cc0 9f3e 3096 48bd 41c1 22bd
000002e0: 7188 0cbc 80b4 913d cdcc 283e 8ad2 173e
000002f0: 88ce ad3e 3494 443e adb1 433e 9e38 da3c
00000300: 659e 9e3d 829b 353d 6ecf 053e 5768 6f3e
00000310: a078 ad3e ff72 b53e 12b0 f03e f9b3 07be
00000320: 32f2 003f 0ff9 5cbe 219e 0f3f 29d0 1f3e
00000330: 525f 293f aa9c f23d 881b 123f ca6d 88bd
00000340: 25d1 393f 9f50 3cbc 78c0 73be f0ec 4dbd
00000350: 5f3a 263d 8a74 a5be ffe3 843d fa23 a5be
00000360: 446b d33d 6e07 10bf e2fa f03d 4175 28bf
00000370: 9ad4 023e 225a 053d 213f b6bc 9149 d13c
00000380: 77ee 723c e06a 2a3d 7c2a bbbb fe0c e83c
00000390: 4a7b 6c3d 153a 8f3e ef43 cbbc c724 d13d
000003a0: 5a71 9cbd 1273 d9bd 1e16 8bbd 6dc0 a53d
000003b0: cdc8 1ebc 949f 203f daa5 4dbd aa97 d53d
000003c0: ff89 1abd d753 b5bd be59 d8bd 0814 01be
000003d0: 3fb6 393c 28ea a23f 825d 32bc d397 8b3e
000003e0: ef16 b0bd 1818 023e c93c 05be 155a 393e
000003f0: 5ab4 c6bd 8077 8cbd fe57 a1bd cbf4 fc3e
