Final AI Code/model/keypoint_classifier/keypoint_classifier.tflite (tflite, 6836 bytes, 6 tensors)

arith.constant f4 [10, 10]
0	0xbef70761	-0.48247817
1	0xbf701a2c	-0.93789935
2	0xbf0cd305	-0.5500949
3	0xbf8e4b78	-1.1116781
4	0x3e9dacdc	0.30795944
5	0xbf4ad654	-0.7923329
6	0xbcccab5f	-0.02498406
7	0xbf412cf2	-0.75459206
8	0xbd9e2f91	-0.07723916
9	0xbf66d1b9	-0.9016376
10	0xbf2b179d	-0.66832906
11	0xbe4b5541	-0.1985674
12	0xbf54c7d6	-0.83117425
13	0xbe7f570e	-0.24935552
14	0xbd1fa244	-0.038973108
15	0xbf2c260b	-0.6724555
16	0x3e396df2	0.18108347
17	0xbecfbc5d	-0.40573397
18	0xbedd006d	-0.43164387
19	0xbfb00716	-1.3752162
20	0xbf873dfb	-1.056579
21	0xbf8549ec	-1.0413184
22	0x3db944f5	0.09046356
23	0xbea58945	-0.3233129
24	0xbe8e70b3	-0.27820358
25	0xbc90d9d2	-0.01768199
26	0x3e140b7b	0.14457504
27	0xbf903def	-1.1268901
28	0xbef8bec2	-0.48583037
29	0xbf4a02fe	-0.78910816
30	0xbf84ac86	-1.036515
31	0xbcdca16a	-0.026932437
32	0x3f8553cc	1.0416198
33	0xbe44b916	-0.1921123
34	0x3f4ef325	0.8083976
35	0x3f29e213	0.66360587
36	0x3df36348	0.11884171
37	0x3e8ce03d	0.2751483
38	0x3e8a448d	0.27005425
39	0xbcc5a8fe	-0.024128433
40	0x3f234f05	0.6379245
41	0xbf1ca75c	-0.6119287
42	0x3e921469	0.28531197
43	0xbf208e30	-0.6271696
44	0xbf13528f	-0.5754785
45	0x3f2ed18c	0.68288493
46	0x3ef9eaaa	0.48811847
47	0xbe2974aa	-0.1654841
48	0x3df5bb19	0.11998577
49	0x3df17f23	0.117918275
50	0x3ed6f03b	0.41980156
51	0xbe9d94ef	-0.3077769
52	0x3f095906	0.53651464
53	0x3f24c198	0.643579
54	0xbe08c27f	-0.13355444
55	0xbf4a587a	-0.79041255
56	0x3f555158	0.83327246
57	0x3ec77647	0.38957426
58	0xbe3421e5	-0.17591055
59	0xbea4f444	-0.3221761
60	0xbe95f5ef	-0.29289195
61	0x3eed1921	0.46308234
62	0x3f178ff2	0.5920402
63	0xbf0d993f	-0.5531196
64	0x3f53bb62	0.827078
65	0xbeea1bfe	-0.4572448
66	0x3c5308d0	0.012880519
67	0xbfb7a79c	-1.4348025
68	0x3f2b2feb	0.6686999
69	0x3efb38e5	0.49066845
70	0xbe88c4cc	-0.26712644
71	0x3d73ecd8	0.059552044
72	0xbf80f98a	-1.0076153
73	0x3f755253	0.9582874
74	0xbfa3b275	-1.2788836
75	0x3e982dec	0.29722536
76	0xbf81e476	-1.0147846
77	0xbf1bdaaa	-0.6088053
78	0x3ed13e4f	0.4086785
79	0x3e0323c7	0.12806617
80	0xbec70157	-0.3886821
81	0xbfe2bdea	-1.7714207
82	0xbe95330f	-0.29140517
83	0xbd6337e6	-0.05547323
84	0xbf7f2aa5	-0.99674445
85	0xbe0d6c0e	-0.13810751
86	0xbf7d2fcc	-0.9890106
87	0x3f18aec4	0.5964167
88	0xbf8c00b7	-1.0937718
89	0x3f678ee0	0.90452385
90	0x3f01cec6	0.50706136
91	0x3de4a379	0.111639924
92	0xbf47f37b	-0.78105897
93	0x3ee33181	0.44373706
94	0xbf9f066f	-1.2423838
95	0x3f2e54a8	0.68097925
96	0xbe8b7149	-0.27234867
97	0x3e8b880a	0.27252227
98	0xbf3b2a4b	-0.7311141
99	0xbff7092e	-1.9299676

arith.constant1 f4 [10, 20]
0	0x3a215433	0.0006154209
1	0x3f763d82	0.96187603
2	0xbe2e30ee	-0.17010853
3	0xbf94181a	-1.1569855
4	0xbd407408	-0.046985656
5	0x3eb92a06	0.36164874
6	0x3e84ccd2	0.25937515
7	0x3e80f343	0.25185594
8	0xbf39d99f	-0.7259769
9	0x3e958a14	0.29206908
10	0x3f24f708	0.6443944
11	0x3e125fb3	0.14294319
12	0xbb88560a	-0.0041606473
13	0xbebd8f7d	-0.37023535
14	0x3e86f82e	0.2636122
15	0x3f1d6529	0.61482483
16	0x3f8f92e0	1.1216698
17	0x3e9f71d4	0.3114153
18	0xbf2455c0	-0.64193344
19	0x3ec639da	0.38716012
20	0x3e83a96c	0.25715196
21	0x3f82901c	1.0200229
22	0x3f9712cb	1.180261
23	0x3f527728	0.8221307
24	0x3eeae449	0.45877293
25	0x3ebb4e0c	0.36582983
26	0x3e9fe918	0.31232524
27	0xbeee1ec1	-0.46507838
28	0x3d10b155	0.035325367
29	0x3ea5670d	0.32305184
30	0x3eec417e	0.46143717
31	0xbeca9f67	-0.3957474
32	0x3ddac141	0.106813915
33	0x3f238714	0.6387799
34	0x3d014df5	0.031568486
35	0x3c478de5	0.012179826
36	0x3e48b621	0.19600727
37	0x3e558dbb	0.20854847
38	0x3ee5a433	0.44851837
39	0xbd573fc6	-0.052551053
40	0x3eac5052	0.3365503
41	0x3f836a5e	1.0266836
42	0xbe285321	-0.16437961
43	0x3f157655	0.58383685
44	0x3f34aec7	0.7057919
45	0x3e7ffbeb	0.24998443
46	0x3e7beecf	0.24602817
47	0x3f339f42	0.70164883
48	0xbd996107	-0.074892096
49	0x3af1fede	0.0018462797
50	0x3ecaaa68	0.39583135
51	0x3f8bca4e	1.0921113
52	0xbddfdd03	-0.109308265
53	0x3f062b3f	0.5240974
54	0x3d1d82fd	0.038455
55	0x3ee1c7fc	0.44097888
56	0x3e6e9d94	0.23302299
57	0xbe068eff	-0.13140486
58	0x3ec7b848	0.39007783
59	0x3ee0adcc	0.43882596
60	0xbea334b7	-0.31876156
61	0x3f00df33	0.50340575
62	0xbeaa9878	-0.3331945
63	0x3e3eca8a	0.1863195
64	0x3b8cf1b3	0.0043012737
65	0x3e5942d6	0.21216902
66	0x3c160902	0.009157421
67	0xbe820889	-0.25397137
68	0xbe1afe90	-0.1513617
69	0xbe36e0cb	-0.17859189
70	0xbde39aed	-0.11113534
71	0x3d69f744	0.057120577
72	0x3ebc8a10	0.36824083
73	0x3eb0b878	0.34515738
74	0xbca976e8	-0.020686582
75	0x3ebda463	0.3703948
76	0x3f40aee6	0.75266874
77	0x3f9d74c3	1.2301258
78	0x3e8e5e10	0.2780614
79	0x3e92c05a	0.28662378
80	0x3eb927fe	0.36163324
81	0xbc10626f	-0.008812531
82	0x3d17caeb	0.037058752
83	0x3f35148b	0.7073447
84	0xbf755fc7	-0.9584927
85	0xbdfef7a0	-0.124495745
86	0xbd6080ef	-0.05481046
87	0x3ef8267c	0.4846686
88	0x3ed9561f	0.42448518
89	0x3e1cddf3	0.15319042
90	0xbd78688e	-0.060646586
91	0xbf3903e1	-0.72271544
92	0x3df55124	0.11978367
93	0xbe3921e8	-0.1807934
94	0xbf1b7b66	-0.60735166
95	0xbeefdb5a	-0.4684704
96	0xbbbf65f9	-0.0058410135
97	0x3e007ecc	0.12548369
98	0x3edffce5	0.4374763
99	0x3ee9ff52	0.45702606
100	0x3ea5f6a9	0.3241475
101	0xbf13d8bb	-0.5775258
102	0x3f1c7e3b	0.6113011
103	0xbdf18ef4	-0.11794844
104	0x3e74a393	0.23890524
105	0x3ee135d8	0.43986392
106	0x3f32cada	0.69840777
107	0xbe4a0c42	-0.19731238
108	0xbddf4fc4	-0.10903886
109	0x3ed543a6	0.41653174
110	0x3f484509	0.7823034
111	0x3ec89286	0.3917429
112	0x3f06f185	0.5271228
113	0xbe0c76bd	-0.1371717
114	0x3f117202	0.5681459
115	0x3d740712	0.059577055
116	0xbed2be41	-0.41160777
117	0x3f0f1072	0.5588447
118	0x3d1625f6	0.036657296
119	0x3ef87e17	0.485337
120	0x3d8dfb9e	0.06932758
121	0xbf86d7fa	-1.0534661
122	0xbe8fde4a	-0.2809928
123	0xbce3b399	-0.0277956
124	0x3ece67ad	0.40313473
125	0x3e5157a6	0.20443591
126	0x3ebe0aa6	0.371175
127	0xbdd7d632	-0.105389014
128	0xbdebc3b7	-0.11511939
129	0x3f1a5048	0.6027875
130	0xbf8f9643	-1.1217731
131	0x3e995dbc	0.29954326
132	0x3f193871	0.5985175
133	0x3f39ecb3	0.726268
134	0x3d2fb6d8	0.042898983
135	0x3e5a2dfc	0.21306604
136	0x3f62150b	0.8831336
137	0x3ac910cf	0.0015340092
138	0xbeaae01c	-0.33374107
139	0x3e24e7d5	0.16104062
140	0x3f6e8c47	0.93182796
141	0xbdb14369	-0.086554356
142	0xbda081ee	-0.07837282
143	0x3c4efe5c	0.012633886
144	0x3f1ae69f	0.6050815
145	0x39e5c711	0.000438266
146	0xbd100e50	-0.0351699
147	0x3f579031	0.84204394
148	0xbe3cd64d	-0.18441124
149	0x3f7776b0	0.9666548
150	0xbe202079	-0.15637387
151	0x3f1af5af	0.60531133
152	0x3f202921	0.6256276
153	0x3e325e1a	0.1741871
154	0x3db565be	0.088572964
155	0x3db799c3	0.089648746
156	0x3f96a2a0	1.1768379
157	0x3f1c1d21	0.6098195
158	0xbcd51c77	-0.02601455
159	0x3f0c7a46	0.54874074
160	0xbed44bf6	-0.41464204
161	0x3eb08558	0.34476733
162	0x3e9146ee	0.28374428
163	0x3f4383a6	0.76372755
164	0x3dca4b1b	0.098776065
165	0x3f2147d2	0.63000214
166	0x3f660cb2	0.8986312
167	0xbe6f0bd2	-0.23344353
168	0xbdd46155	-0.10370127
169	0x3d36e86e	0.044655256
170	0x3f134634	0.57528996
171	0xbf05f8fd	-0.5233305
172	0x3df53b12	0.119741574
173	0x3f7e2fbe	0.992916
174	0x3f423dbb	0.75875443
175	0x3f17a4bf	0.5923576
176	0xbfd6e3ce	-1.678827
177	0x3e92e75b	0.28692135
178	0x3ea5f61a	0.32414323
179	0xbc8facac	-0.017538391
180	0x3f118882	0.5684892
181	0x3ea6c458	0.32571673
182	0xbe1b656f	-0.15175413
183	0x3d487553	0.048940014
184	0xbf561777	-0.83629555
185	0x3e0c752e	0.13716576
186	0x3ed0d4d3	0.40787372
187	0x3e6cd2e1	0.23127319
188	0x3f8e1131	1.1098996
189	0xbd3cd4c9	-0.046101365
190	0xbcffed56	-0.0312411
191	0x3e915798	0.2838714
192	0xbda11714	-0.0786573
193	0x3e84cc8b	0.25937304
194	0x3fa10c02	1.258179
195	0x3f3fe808	0.74963427
196	0xbc45f027	-0.012081183
197	0x3ceaf12c	0.028679453
198	0x3ed6937b	0.41909394
199	0xbf03afeb	-0.51440305

arith.constant2 f4 [10]
0	0xbe766d4b	-0.2406513
1	0xbe9a8140	-0.30176735
2	0xbe86552c	-0.26236856
3	0xbf6051ab	-0.87624615
4	0xbecea5a3	-0.40360746
5	0xbdd2514a	-0.10269411
6	0x3da5681b	0.08076497
7	0x3ef23f5e	0.4731397
8	0x3f898dcb	1.0746397
9	0x3f61cedc	0.8820627

arith.constant3 f4 [10]
0	0x3f53ee04	0.8278506
1	0x3f0064e7	0.50153965
2	0xbf72b54b	-0.9480788
3	0x3f43cc7b	0.7648389
4	0xbec6753c	-0.38761318
5	0x3e5a6dee	0.21330997
6	0xbed439f5	-0.41450468
7	0x3ed1b26d	0.4095644
8	0xbdfcffa7	-0.12353449
9	0x3f9236d3	1.1422981

sequential_1_1/dense_3_1/BiasAdd/ReadVariableOp f4 [20]
0	0xbf167f52	-0.58788025
1	0xbf548aad	-0.830241
2	0xbe91394e	-0.28364033
3	0xbf09b0c4	-0.5378535
4	0xbf680e7d	-0.9064711
5	0xbf1e8ca3	-0.61933345
6	0xbf59185b	-0.8480279
7	0xbf0b5001	-0.5441895
8	0x3ba20e23	0.004945533
9	0x3e2c6749	0.16836275
10	0x3e879df4	0.26487696
11	0xbf458ffb	-0.7717282
12	0xbe008a41	-0.1255274
13	0xbf80490e	-1.0022295
14	0x3dbdc160	0.09265399
15	0xbee58add	-0.44832507
16	0xbf2d9ef3	-0.6782066
17	0x3e97b7a5	0.29632297
18	0xbf10d32c	-0.5657222
19	0xbf1cd243	-0.61258334

sequential_1_1/dense_3_1/MatMul f4 [20, 42]
0	0x3e85e46c	0.26150835
1	0xbdba5aae	-0.09099327
2	0x3f1c3f23	0.6103384
3	0xbd02f1f8	-0.03196904
4	0x3e8d1370	0.27553892
5	0x3e62d17c	0.22150224
6	0x3e8da8a2	0.2766772
7	0x3ea7cc34	0.32772982
8	0x3ef670fe	0.4813308
9	0x3df4fbbe	0.119620785
10	0xbede73c6	-0.43447703
11	0x3e8304ae	0.25589508
12	0x394c6c9a	0.00019495413
13	0x3e540290	0.20704103
14	0x3e5ce4bd	0.21571632
15	0x3e3e3961	0.18576576
16	0x3e660280	0.22461891
17	0x3dee50df	0.11636519
18	0xbeae958d	-0.34098473
19	0x3e00fb94	0.1259597
20	0x3dd179c6	0.102283046
21	0x3e05a514	0.13051254
22	0x3e7357ea	0.23764005
23	0x3e54cbd0	0.20780873
24	0x3e439ed3	0.19103555
25	0x3e8597a7	0.26092264
26	0x3dd01f1f	0.10162186
27	0x3df82216	0.121158764
28	0x3ecbd48e	0.39810604
29	0x3e122f4a	0.14275852
30	0x3ebc0777	0.36724445
31	0xbdabdc16	-0.083915874
32	0x3e8060f3	0.25073966
33	0xbcabeb11	-0.020986112
34	0x3eb1025b	0.3457211
35	0x3d25cc94	0.040478304
36	0x3f2038d4	0.6258671
37	0x3d6270fc	0.05528353
38	0x3f14f0b9	0.58179814
39	0xbd97a325	-0.07404164
40	0x3ee50db8	0.4473703
41	0x3c9eb3aa	0.01937278
42	0x3e842a3c	0.25813472
43	0x3cf4b320	0.02987057
44	0xbf726b33	-0.94694823
45	0xbf02b847	-0.51062435
46	0xbf2209bf	-0.6329612
47	0xbed8690d	-0.42267647
48	0xbe94059d	-0.28910533
49	0xbf08ec91	-0.5348597
50	0x3e0e6455	0.13905461
51	0xbec5dd76	-0.38645524
52	0xbece69f4	-0.4031521
53	0xbc711350	-0.014714077
54	0xbe4c2ec4	-0.19939715
55	0xb9f38f7e	-0.00046455482
56	0xbe6015ab	-0.21883266
57	0x3e4b2e02	0.1984177
58	0xbe44a24e	-0.1920254
59	0x3e738ea5	0.23784883
60	0xbdf6350b	-0.12021836
61	0x3d9f7104	0.07785228
62	0x3d424fc3	0.047439348
63	0xbcf54414	-0.029939689
64	0xbde900f0	-0.11377132
65	0x3dce4d9f	0.10073399
66	0xbe5d3257	-0.21601234
67	0x3e669dca	0.22521129
68	0x3f018c29	0.5060449
69	0x3db93dd4	0.09044996
70	0x3e81dcd6	0.25363797
71	0xbd44f7bd	-0.048087824
72	0x3e184c2e	0.1487281
73	0x3d05d462	0.032673247
74	0xbd51cfa5	-0.051223416
75	0x3e4082a3	0.18799834
76	0x3f5698d4	0.8382695
77	0x3dc9fabc	0.09862277
78	0x3f0c82df	0.54887193
79	0xbd907254	-0.07053056
80	0x3ebbf3f0	0.36709547
81	0xbd9c7624	-0.07639721
82	0x3e10c958	0.14139307
83	0x3dfd98b3	0.12382641
84	0xbc822900	-0.015888691
85	0xbba3cdc0	-0.0049988925
86	0xbf7d7dce	-0.9902009
87	0x3ee89ebf	0.45433614
88	0xbf21086b	-0.6290347
89	0x3e921c88	0.28537393
90	0xbdc2de3c	-0.09515044
91	0x3e39a7d2	0.18130425
92	0x3e3befb0	0.18353152
93	0x3dc6ca48	0.09706551
94	0xbac746ca	-0.0015203592
95	0x3d4f4dce	0.05061131
96	0xbceea814	-0.02913288
97	0xbe3000b0	-0.17187762
98	0xbe295d5c	-0.1653952
99	0xbd976855	-0.07392947
100	0xbf1a54e3	-0.60285777
101	0x3e15f0dd	0.14642663
102	0x3d912c9e	0.07088588
103	0xbd517247	-0.051134374
104	0xbc349254	-0.0110212155
105	0xbe2dc32e	-0.16968986
106	0xbca1618b	-0.019699832
107	0x3e4e74e0	0.20161772
108	0x3d3ac85a	0.045601226
109	0x3ee0cc37	0.43905804
110	0x3cd51e76	0.026015501
111	0xbf017ea8	-0.5058389
112	0xbca67d3b	-0.020323386
113	0xbe9594c1	-0.29215053
114	0xbd315107	-0.043290164
115	0x3e90ef83	0.28307733
116	0x3e04c550	0.12965894
117	0x3ede6dba	0.4344309
118	0x3db92017	0.09039324
119	0xbf3bb4bf	-0.7332267
120	0xbc5d785c	-0.013517465
121	0xbf04c8a1	-0.51868635
122	0xbd7ae218	-0.061250776
123	0x3db620af	0.08892953
124	0xbdbfad13	-0.09359183
125	0x3e3e836e	0.18604824
126	0x3e805c44	0.25070393
127	0x3decbd04	0.11559489
128	0x3dbab1f7	0.09115975
129	0xbefaf194	-0.49012434
130	0xbe16f501	-0.14741899
131	0x3d835ad2	0.06413807
132	0x3d5ce938	0.053933352
133	0x3e8387a6	0.2568943
134	0x3d132550	0.035924256
135	0x3e8befcc	0.27331388
136	0xbd511be7	-0.051052
137	0xbf43bcea	-0.76460135
138	0x3c677dfb	0.014129157
139	0xbe114950	-0.14188123
140	0xbadc190e	-0.0016792135
141	0x3ec1d3cc	0.378569
142	0x3b090968	0.0020910148
143	0x3eb8ecf9	0.36118296
144	0xbaabbd44	-0.001310267
145	0xbf2ef632	-0.68344414
146	0xbd43acdf	-0.047772285
147	0xbdf7102a	-0.1206363
148	0xbd84b0fa	-0.06479068
149	0x3e3264a4	0.17421204
150	0x3d6b10d1	0.057389084
151	0x3e88d693	0.26726207
152	0xbd8b9df1	-0.06817234
153	0xbede4eb3	-0.43419418
154	0x3d5154cb	0.051106256
155	0xbea92753	-0.33037814
156	0x3d5f4459	0.05450854
157	0x3e49412d	0.19653769
158	0x3c3d0124	0.0115359165
159	0x3e9d08f6	0.306709
160	0xbd288c17	-0.041149225
161	0xbe89629e	-0.2683305
162	0x3dce74f7	0.10080903
163	0xbe10539a	-0.14094391
164	0xbcb4f7b1	-0.022090765
165	0x3e9e1f14	0.30883086
166	0x3d20aec4	0.03922917
167	0x3ec7bc67	0.39010927
168	0xbe24c0a5	-0.16089113
169	0xbe1776cf	-0.14791416
170	0xbf465b64	-0.774832
171	0xbf3184db	-0.69343346
172	0xbef4797d	-0.47748938
173	0xbeb88b99	-0.36044005
174	0xbe7d6727	-0.24746381
175	0xbe90ad7f	-0.28257367
176	0xbe775be5	-0.24156149
177	0xbe52f227	-0.20600186
178	0x3dc5057b	0.09620186
179	0xbd63ad6a	-0.055585302
180	0xbdde398d	-0.10850821
181	0x3d312da0	0.043256402
182	0x3db007c6	0.08595233
183	0x3eda1126	0.42591208
184	0x3e84e94c	0.2595924
185	0x3f0326be	0.5123099
186	0xbda822e2	-0.08209778
187	0x3cfa23cf	0.030534653
188	0xbe8c71a1	-0.27430442
189	0xbd6e52a6	-0.05818429
190	0xbe9d65b5	-0.3074166
191	0x3e5fe2ec	0.21863908
192	0xbe098376	-0.13429055
193	0x3eb02e04	0.34410107
194	0xbd9288a6	-0.0715497
195	0xbd2b6a76	-0.041849576
196	0xbebdd939	-0.3707979
197	0xbdc22e08	-0.09481436
198	0xbebd6bb9	-0.36996248
199	0x3e5e7843	0.21725564
200	0xbeb9d1fb	-0.36293015
201	0x3e235634	0.15950853
202	0xbedf9e70	-0.43675566
203	0xbe660fd6	-0.22466978
204	0xbf11d329	-0.5696283
205	0x3dced8dd	0.10099957
206	0xbf276002	-0.6538087
207	0xbcff017a	-0.031128634
208	0xbf0934f7	-0.5359644
209	0x3d8f52e9	0.06998236
210	0x3e2ec34a	0.17066684
211	0xbdc7163a	-0.09721036
212	0x3b4714b7	0.0030377337
213	0x3f40cb4a	0.75310194
214	0xbde79a7a	-0.11308761
215	0x3eecea0e	0.4627232
216	0x3d638960	0.055550933
217	0x3eb451ac	0.3521856
218	0xbb040a2a	-0.002014766
219	0x3e884be9	0.26620415
220	0xbe01fc7b	-0.1269397
221	0x3f04e75c	0.51915526
222	0xbdc51cda	-0.096246436
223	0xbe24d431	-0.1609657
224	0xbe326f1e	-0.174252
225	0xbe77fe7f	-0.24218176
226	0xbe8a4637	-0.27006695
227	0xbec45b78	-0.38351035
228	0xbcc8f676	-0.024531584
229	0x3ecd2842	0.40069777
230	0x3d0a5681	0.033773903
231	0xbea724bf	-0.32645223
232	0xbc43f6ea	-0.011960724
233	0xbf2a90bd	-0.66627103
234	0x3d9f907c	0.0779123
235	0xbf5c0dec	-0.85958743
236	0xbe270a78	-0.16312587
237	0x3eb08f6f	0.3448443
238	0xbdfa80c4	-0.12231591
239	0xbeb1ab97	-0.34701225
240	0x3d1698c2	0.036766775
241	0xbf3b17c6	-0.7308315
242	0x3e30ea36	0.17276844
243	0xbf917fa4	-1.1367078
244	0xbd1a94c5	-0.037739534
245	0xbcd853ca	-0.026407141
246	0xbd06c0b8	-0.032898635
247	0xbee9f900	-0.45697784
248	0xbc6099a2	-0.013708504
249	0xbf77e6f1	-0.96836764
250	0x3e95c7d3	0.29254016
251	0xbf64580a	-0.89196837
252	0xbe111819	-0.14169349
253	0x3e9f401e	0.31103605
254	0xbe4c7f1d	-0.19970365
255	0x3f353295	0.7078031
