hand-gesture-recognition-using-mediapipe-main-20250219T143754Z-001/hand-gesture-recognition-using-mediapipe-main/model/keypoint_classifier/keypoint_classifier.tflite (tflite, 6836 bytes, 6 tensors)

arith.constant f4 [10, 10]
0	0xbefc6e41	-0.49302867
1	0x3ec41744	0.38299
2	0x3f48c70d	0.7842873
3	0x3e10c027	0.141358
4	0xbf3e4bc9	-0.7433439
5	0xbfb4622d	-1.4092461
6	0xbf9381f7	-1.1524037
7	0x3f0636e9	0.52427536
8	0xbfb9a667	-1.4503907
9	0x3e15596b	0.14584891
10	0xbd8d04f7	-0.068857126
11	0x3e09a496	0.13441691
12	0x3ccba182	0.024857286
13	0x3f0ffcd2	0.5624515
14	0xbcc7a3a8	-0.02437003
15	0x3ec641d7	0.38722107
16	0x3d8e2497	0.06940573
17	0x3e517785	0.2045575
18	0xbe0d9de4	-0.13829762
19	0x3e013fdc	0.12622017
20	0x3ef15861	0.4713774
21	0xbf5b95f8	-0.8577571
22	0x3f08d9d8	0.53457403
23	0xbd999bba	-0.075004056
24	0x3ecb8444	0.39749348
25	0xbc300c79	-0.010745161
26	0xbd9b380b	-0.07579049
27	0x3e662a42	0.22477058
28	0xbe32a493	-0.17445593
29	0xbead8e68	-0.3389771
30	0xbee20729	-0.44146088
31	0x3e8b488f	0.27203795
32	0xbfa9df09	-1.327119
33	0x3f8500c7	1.0390862
34	0x3ee70157	0.4511821
35	0xbc57f664	-0.013181303
36	0xbe9ebb4c	-0.3100227
37	0xbe47a7db	-0.19497626
38	0x3f147b70	0.5800085
39	0x3fa0c49d	1.2560002
40	0xbe75e301	-0.24012376
41	0x3dc7f2cb	0.09763106
42	0xbed743f6	-0.42044038
43	0xbeeb8621	-0.4600077
44	0xbf94ac62	-1.1615107
45	0x3ed3a197	0.4133422
46	0x3f81c9dd	1.0139729
47	0xc02cef48	-2.7021046
48	0xbf4d4780	-0.80187225
49	0xbfb5225d	-1.4151112
50	0xbedf8dfa	-0.43663007
51	0x3f47a4c9	0.7798582
52	0xbe8edc46	-0.2790243
53	0xbf05d9e0	-0.52285576
54	0x3ddafc8a	0.10692699
55	0x3f378500	0.71687317
56	0xbf9153d3	-1.1353706
57	0x3e18cf35	0.14922793
58	0x3f0fea7c	0.5621717
59	0xbdbc4b5e	-0.09194063
60	0x3d458954	0.04822667
61	0x3d52a0b6	0.051422797
62	0xbe1e9c95	-0.15489419
63	0x3f2d22f6	0.6763147
64	0x3ed4bb39	0.4154909
65	0xbf242cba	-0.6413075
66	0x3ea5c7d2	0.32379013
67	0xbf012293	-0.5044338
68	0xbd125451	-0.03572494
69	0xbed68c06	-0.41903704
70	0x3f6f0609	0.93368584
71	0xbf487d4b	-0.7831618
72	0x3f386059	0.72022015
73	0xbf998593	-1.1993889
74	0xbe6fbcf8	-0.2341193
75	0xbedeea92	-0.43538338
76	0x3f27fdab	0.6562144
77	0xc00580e6	-2.0859923
78	0xc02f6c45	-2.7409832
79	0x3e216351	0.15760542
80	0xbf80b702	-1.005585
81	0xbeb7b064	-0.35876763
82	0x3e7ff7b8	0.24996841
83	0xbfaa3972	-1.3298781
84	0x3f50f091	0.81617075
85	0x3eb3e751	0.35137418
86	0xbf5c07a8	-0.8594918
87	0x3e96daba	0.2946375
88	0xbfa01e9a	-1.2509339
89	0xbf905678	-1.1276388
90	0xbe5ee07c	-0.21765321
91	0xbf1b7cd9	-0.6073738
92	0x3f6ad9ce	0.91738594
93	0xbdd5d9b6	-0.10441916
94	0xbf440edd	-0.7658518
95	0xbe7cfabf	-0.24705027
96	0xbf8f75a1	-1.1207772
97	0xbf197fb0	-0.5996046
98	0x3f2333db	0.63751
99	0xbcf1e6c1	-0.029528977

arith.constant1 f4 [10, 20]
0	0xbe56be62	-0.20971063
1	0xbe846da2	-0.25864893
2	0x3f854af1	1.0413495
3	0x3e2eb794	0.17062217
4	0x3f1513da	0.58233416
5	0x3e514022	0.20434621
6	0xbe8e2754	-0.2776438
7	0x3dde5b5c	0.10857269
8	0x3f095c49	0.5365644
9	0x3eddab99	0.4329498
10	0x3ede523e	0.4342212
11	0xbe951cb7	-0.2912347
12	0xbe695f8c	-0.22790354
13	0x3e0a83e9	0.13526882
14	0x3f4192aa	0.75614417
15	0xbe594ac3	-0.21219926
16	0xbf39fd91	-0.72652537
17	0x3db1c5b1	0.08680285
18	0x3e43a726	0.19106731
19	0x3ed35ad5	0.41280237
20	0x3dff948b	0.12479504
21	0xbdeb47cc	-0.114883035
22	0x3e2e56fb	0.17025368
23	0xbf284163	-0.6572477
24	0x3e004b4d	0.12528725
25	0x3eabce6d	0.33555928
26	0x3f1a8891	0.60364634
27	0x3ee5f640	0.44914436
28	0x3e41a6de	0.18911311
29	0x3e0d0646	0.13771924
30	0xbd3dccf4	-0.046338037
31	0xbed1bc33	-0.40963897
32	0x3f6faf85	0.93627197
33	0x3b19dd1e	0.0023477743
34	0x3f807283	1.0034946
35	0xbe0f56c1	-0.13997938
36	0x3edc0b1a	0.4297722
37	0xbf2752f4	-0.6536095
38	0xbc9e4de8	-0.019324258
39	0xbe53f36e	-0.2069833
40	0xbd810ca8	-0.06301242
41	0xbe752794	-0.23940879
42	0x3c70e86a	0.014703849
43	0x3f804658	1.0021467
44	0xbe1160a8	-0.14197028
45	0x3f42f155	0.76149493
46	0x3f66e6bd	0.9019583
47	0x3e001d83	0.12511258
48	0x3f51927e	0.81864154
49	0x3f222e70	0.6335211
50	0x3f3c290e	0.73500144
51	0xbe4614de	-0.19343898
52	0x3f05575b	0.5208642
53	0x3e04931e	0.12946746
54	0xbcf4ee0a	-0.029898662
55	0x3f038944	0.51381326
56	0xbe3f3b7d	-0.18675037
57	0xbdc15e62	-0.0944183
58	0x3e71affd	0.2360229
59	0x3e2a9231	0.1665733
60	0x3e817633	0.2528549
61	0x3e99af23	0.3001643
62	0x3f24a615	0.6431592
63	0x3f901a68	1.1258059
64	0x3ec82fcf	0.39098975
65	0x3be07060	0.0068493336
66	0xbe19760c	-0.14986438
67	0x3ec0296c	0.37531602
68	0x3ede7981	0.43452075
69	0x3d1eced0	0.03877145
70	0x3f8d9bf0	1.1063213
71	0x3f323760	0.69615746
72	0xbe8b00a0	-0.27148914
73	0x3f499caf	0.78754705
74	0x3f69241e	0.91070735
75	0x3e978621	0.2959452
76	0x3f622981	0.8834458
77	0x3f3c5451	0.73566157
78	0x3e4dd5ec	0.20101136
79	0x3f76b0b3	0.9636337
80	0x3f218d80	0.63106537
81	0x3f169315	0.5881818
82	0x3ebe13a3	0.37124357
83	0xbc47fdb4	-0.012206484
84	0x3db538c1	0.088487156
85	0xbf95e8d9	-1.1711684
86	0xbe92dbce	-0.28683323
87	0xbecae28a	-0.3962596
88	0xbd4e9388	-0.050433666
89	0x3e039b85	0.12852295
90	0x3e669105	0.22516258
91	0x3ce6e7d7	0.028186722
92	0xbf0fa71a	-0.5611435
93	0x3e0e3cc1	0.13890363
94	0x3e901f89	0.2814906
95	0x3f472263	0.77786845
96	0x3efb638b	0.49099383
97	0x3de9adf9	0.11410136
98	0xbd2d4d11	-0.042309824
99	0x3f927c9f	1.1444281
100	0x3e986e50	0.29771662
101	0x3f3a3968	0.72743845
102	0x3e5dabf4	0.21647626
103	0x3e2c512d	0.16827841
104	0x3f2d0932	0.67592156
105	0x3d3911d2	0.04518301
106	0x3f38f54a	0.7224928
107	0x3f06c8a3	0.526499
108	0x3e818efd	0.25304404
109	0x3f82236f	1.0167063
110	0xbd966043	-0.07342579
111	0x3ef21c69	0.472873
112	0x3f0ab6eb	0.5418536
113	0x3ed63680	0.41838455
114	0x3e45b310	0.19306588
115	0x3de4b33d	0.111669995
116	0x3ef925a6	0.48661536
117	0x3ea78a46	0.32722682
118	0xbcbc9f62	-0.023025218
119	0x3e01b3aa	0.12666193
120	0xbe0a8437	-0.13526998
121	0xbdf97090	-0.12179673
122	0x3f052049	0.5200239
123	0xbf9ae307	-1.2100533
124	0x3f6f2215	0.9341138
125	0xbeaeb285	-0.34120575
126	0xbd760d5b	-0.06007133
127	0x3f058f99	0.5217224
128	0xbe090838	-0.13382041
129	0xbd610e3a	-0.054945208
130	0xbd9b5934	-0.075853735
131	0x3fbceb51	1.4759313
132	0xbf438485	-0.76374084
133	0xbdf6e1aa	-0.12054761
134	0x3f929419	1.1451446
135	0xbe67c6d4	-0.2263444
136	0xbea1f078	-0.31628776
137	0x3f8df94d	1.1091706
138	0xbc75bd7c	-0.01499879
139	0x3d5a1627	0.053243782
140	0x3f493a92	0.78604996
141	0x3f74bb74	0.9559853
142	0xba88847e	-0.0010415462
143	0x3f1b1148	0.60573244
144	0x3cb57ccc	0.022154234
145	0x3f84fbe6	1.0389373
146	0x3ee49373	0.44643745
147	0xbe0b9bc6	-0.13633642
148	0x3f58a3de	0.8462504
149	0xbd5f6180	-0.054536343
150	0x3e231f66	0.15929946
151	0x3cc9a928	0.024616793
152	0x3f9006b6	1.1252048
153	0x3e596698	0.21230543
154	0x3dbdffa0	0.09277272
155	0x3f983f25	1.189427
156	0x3e5a4f37	0.2131928
157	0x3c0623c0	0.008187234
158	0x3f348278	0.7051158
159	0x3e5be008	0.2147218
160	0xbf18267e	-0.59433734
161	0x3e05c529	0.13063492
162	0x3ec23a96	0.37935323
163	0xbd9b8b50	-0.07594931
164	0x3dd71528	0.10502082
165	0x3f1c66d2	0.6109439
166	0xbe20e846	-0.15713605
167	0x3f541c16	0.82855356
168	0xbdc88a7a	-0.09792037
169	0x3c5077e6	0.0127238985
170	0x3e672002	0.22570804
171	0x3ee52457	0.44754288
172	0xbe946bd5	-0.2898852
173	0x3f6cbcdb	0.9247567
174	0xbe65a1c5	-0.22424991
175	0xbf2c521d	-0.67312795
176	0xbff9671e	-1.9484594
177	0xbe368452	-0.17823914
178	0x3f52acbe	0.82294834
179	0xbf9c4cb2	-1.2210906
180	0x3e5eb2ec	0.21747941
181	0x3e4f5b40	0.20249653
182	0x3e8e7253	0.27821597
183	0x3e843b4f	0.258265
184	0x3d71e3dd	0.059055198
185	0x3e96608d	0.29370537
186	0x3ecd7896	0.40131062
187	0x3e478bce	0.19486925
188	0x3f1e5590	0.6184931
189	0x3e7041ff	0.23462676
190	0xbc278968	-0.010225631
191	0x3e36af34	0.17840272
192	0x3eae7f1c	0.34081352
193	0xbfb841f9	-1.4395133
194	0x3ee06962	0.438304
195	0x3e1d7e0f	0.15380119
196	0xbfc4e40a	-1.5382092
197	0x3e4be9f9	0.19913472
198	0x3ed9eb13	0.4256216
199	0x3d2f9f42	0.04287649

arith.constant2 f4 [10]
0	0x3ed64ada	0.41853982
1	0xbeac1b25	-0.3361446
2	0x3ef040f4	0.46924555
3	0xbfcb9cd5	-1.5907236
4	0x3f555044	0.833256
5	0xbf450fd5	-0.7697728
6	0xbd4ec775	-0.050483186
7	0x3e97256a	0.29520732
8	0x3f67673f	0.90391916
9	0x3e7576ec	0.23971146

arith.constant3 f4 [10]
0	0x3ef333d6	0.47500485
1	0xbe8e5bc3	-0.27804384
2	0x3f905f91	1.1279165
3	0xbf716be7	-0.9430527
4	0x3eb4cae3	0.3531104
5	0xbdc5580c	-0.09635934
6	0x3f992dd2	1.1967108
7	0x3e178bd2	0.14799431
8	0xbd5d9cd0	-0.054104626
9	0x3e90e3a3	0.28298673

sequential_2_1/dense_6_1/BiasAdd/ReadVariableOp f4 [20]
0	0xbf224965	-0.6339324
1	0xbf6aa0ce	-0.9165162
2	0xbf7714a9	-0.965159
3	0x3f8559c7	1.0418023
4	0xbf262acb	-0.64909047
5	0x3dfceedd	0.12350247
6	0xbc82be4b	-0.01595988
7	0xbf81e4ba	-1.0147927
8	0x3f0911ee	0.53542984
9	0x3d7caeb0	0.061690032
10	0xbe7c38fc	-0.24631113
11	0xbf7659cd	-0.96230775
12	0xbdfd6a9b	-0.12373849
13	0xbfa8c63f	-1.31855
14	0xbf88d451	-1.0689794
15	0x3e74d94e	0.2391102
16	0xbf9a5434	-1.2056947
17	0xbf5a3653	-0.8523914
18	0xbed5e46b	-0.41775832
19	0xbf281558	-0.6565757

sequential_2_1/dense_6_1/MatMul f4 [20, 42]
0	0xbe8c716b	-0.2743028
1	0xbdd1144a	-0.10208948
2	0x3e327ab2	0.17429617
3	0xbeaaec0b	-0.33383211
4	0x3e54ff13	0.20800428
5	0xbe571dec	-0.21007508
6	0x3e83cb43	0.25741014
7	0xbebc0196	-0.3671996
8	0x3e87cab2	0.26521832
9	0xbe4a5d6f	-0.19762205
10	0xbe779fae	-0.24182007
11	0x3eb2196a	0.34785014
12	0x3da48447	0.080330424
13	0x3d7a48af	0.061104473
14	0x3e22c380	0.1589489
15	0xbc469ddd	-0.0121225985
16	0x3de83291	0.1133777
17	0x3d79a261	0.060945872
18	0xbef9de23	-0.4880229
19	0x3e863435	0.26211706
20	0x3ea39804	0.31951916
21	0x3d655a1c	0.055994138
22	0x3ea43821	0.32074073
23	0xbdceb192	-0.100924626
24	0x3ec63db3	0.38718948
25	0xbc6d6d12	-0.014491336
26	0x3c5099d9	0.012731993
27	0x3e66b1bc	0.22528738
28	0x3f25b8cb	0.64735097
29	0x3d835a73	0.06413736
30	0x3f1c5436	0.61065996
31	0xbc87c583	-0.016573673
32	0x3f0018db	0.50037926
33	0xba966e1b	-0.0011476906
34	0x3f1d6383	0.6147997
35	0x3d98f239	0.07468075
36	0x3f262ae7	0.64909214
37	0xbc764077	-0.015030018
38	0x3f30cba8	0.69060755
39	0xbd81c96c	-0.06337246
40	0x3ecf835f	0.40529916
41	0xbd6bf3fc	-0.05760573
42	0xbd2434d8	-0.04008946
43	0x3e323942	0.17404655
44	0x3e2e1b2d	0.17002554
45	0xbf1680ff	-0.5879058
46	0x3ddcc73b	0.10780188
47	0xbe63a135	-0.22229464
48	0x3dc41803	0.09574892
49	0xbe85ddde	-0.26145834
50	0x3e3190bf	0.17340373
51	0xbeeb7283	-0.45985803
52	0x3ea6a3ad	0.3254675
53	0x3e267f9c	0.16259617
54	0x3d56e685	0.052465934
55	0xbbeaefec	-0.007169714
56	0xbd57fcd1	-0.05273134
57	0x3bf19ac4	0.007373186
58	0xbe45c397	-0.19312893
59	0x3b2ce41b	0.0026381079
60	0x3f3405e1	0.7032147
61	0x3e06cc73	0.13163929
62	0x3e96d2eb	0.29457793
63	0x3d79c93d	0.06098293
64	0x3e0a16d9	0.13485278
65	0xbd47d224	-0.04878439
66	0x3cc3469e	0.023837384
67	0xbc1977f5	-0.009366979
68	0x3f4a9a83	0.79142016
69	0x3da29387	0.07938295
70	0x3ec18ab8	0.37801147
71	0x3e01a832	0.12661818
72	0x3e987e0f	0.29783675
73	0xbbb10e62	-0.005403326
74	0x3e192d4d	0.14958687
75	0xbc5d2694	-0.013497967
76	0x3f35f33a	0.7107426
77	0xbd6c37eb	-0.057670515
78	0x3ed95bae	0.4245276
79	0x3da77f2b	0.08178552
80	0x3e675f55	0.2259496
81	0xbd863583	-0.06553175
82	0x3e28b3fa	0.16474906
83	0xbd589d0b	-0.052884143
84	0xbe9cd265	-0.30629268
85	0x3e2d7cf0	0.16942191
86	0xbec1afcb	-0.37829432
87	0xbe24cb1a	-0.16093102
88	0xbe2ba551	-0.16762282
89	0x3c9e012c	0.019287668
90	0xbcd6a358	-0.026200935
91	0x3e3aab76	0.1822947
92	0x3e19c476	0.1501635
93	0x3e34bd2e	0.17650291
94	0x3e5b0114	0.2138713
95	0xbf6c1f0f	-0.9223489
96	0x3d32675e	0.04355561
97	0xbf09cda5	-0.53829414
98	0xbce15d7d	-0.027510399
99	0x3c0e7ffe	0.008697508
100	0xbc9e5369	-0.019326882
101	0x3e5b9abd	0.21445747
102	0x3e598dcb	0.21245496
103	0xbf7f42f7	-0.99711555
104	0xbd32bb7e	-0.043635838
105	0xbea4014a	-0.32032233
106	0xbd888907	-0.06666761
107	0x3e884e02	0.26622015
108	0xbcce63f0	-0.025194138
109	0x3ee42095	0.44556108
110	0x3ea52c9a	0.3226059
111	0xbf656daa	-0.8962046
112	0xbcb2ee1e	-0.021842059
113	0xbe6bd311	-0.23029734
114	0xbe1e5663	-0.15462641
115	0x3ec14e8c	0.3775524
116	0xbe26097d	-0.16214557
117	0x3efe657c	0.496868
118	0x3e46cb8b	0.19413583
119	0xbf765e1e	-0.9623736
120	0xbd8d1639	-0.06889004
121	0xbe3757b4	-0.1790455
122	0xbe10b712	-0.14132336
123	0x3eccd3ad	0.40005246
124	0xbe130a1e	-0.14359328
125	0x3f051273	0.51981276
126	0xbde29570	-0.11063659
127	0xbdca9b18	-0.09892863
128	0x3f08261b	0.53183144
129	0xbe4bd1e1	-0.19904281
130	0x3e028bbc	0.12748617
131	0x3d378d69	0.044812594
132	0xbe1cd0a5	-0.15313967
133	0x3e5d4b35	0.2161072
134	0xbeaf347a	-0.34219724
135	0x3e899282	0.2686959
136	0x3e0cc4a6	0.1374689
137	0x3f31ccc2	0.6945306
138	0x3d143294	0.036181048
139	0x3ecee41e	0.40408415
140	0xbe22a1bc	-0.1588201
141	0x3db749ec	0.08949646
142	0xbe4b284f	-0.19839595
143	0x3cf5f6f8	0.03002499
144	0x3dae808f	0.08520614
145	0x3f8f53c3	1.1197437
146	0xbc536092	-0.012901442
147	0x3eec6067	0.461673
148	0xbc7ee480	-0.015557408
149	0x3daea0d8	0.08526772
150	0xbc8310d7	-0.01599924
151	0x3de0c160	0.10974383
152	0x3d88fa51	0.06688369
153	0x3fbdddb6	1.4833286
154	0xbd971724	-0.073774606
155	0x3f18fb1b	0.59758157
156	0x3c592ad0	0.013254836
157	0x3e160f47	0.14654265
158	0x3c460f77	0.012088648
159	0xbdd8c9ac	-0.10585341
160	0x3cfd32b7	0.030907972
161	0x3f94dfdc	1.1630816
162	0xbdaa9dde	-0.08330892
163	0x3ef8b274	0.4857365
164	0xbe2ddeee	-0.16979572
165	0x3da137a7	0.07871943
166	0xbe02e418	-0.12782323
167	0xbecb74b1	-0.39737466
168	0x3e337e6c	0.17528695
169	0x3df5c550	0.12000525
170	0xbe2a715e	-0.16644809
171	0x3f110ea5	0.5666297
172	0x3d5e440e	0.05426412
173	0x3d48339e	0.04887735
174	0x3eac9373	0.33706245
175	0xbeb28881	-0.3486977
176	0x3ecd28e1	0.4007025
177	0xbe958dad	-0.29209653
178	0x3dc34c7e	0.09536074
179	0x3f393953	0.72353095
180	0xbda521c0	-0.08063078
181	0xbbc824b7	-0.0061078924
182	0xbe198d3e	-0.14995286
183	0xbe4db7ee	-0.20089695
184	0xbe0324cc	-0.12807006
185	0xbe3c1d7e	-0.18370625
186	0x3e7351a7	0.23761617
187	0x3f08f882	0.5350419
188	0x3df5d369	0.12003214
189	0xbc27f4f3	-0.010251272
190	0xbe3ff09f	-0.18744133
191	0xbee558d3	-0.4479433
192	0xbe9fc74e	-0.31206745
193	0xbf5bd8d4	-0.8587773
194	0x3e8f4c23	0.27987775
195	0x3eb73fc2	0.3579083
196	0x3dd2d186	0.1029387
197	0xbd1dda4d	-0.038538266
198	0xbe4249a4	-0.18973404
199	0xbeadf5d5	-0.33976617
200	0xbe33cad6	-0.17557845
201	0xbf775722	-0.9661733
202	0x3e8117c8	0.25213456
203	0x3e20f39f	0.15717934
204	0x3e1fdbfb	0.1561126
205	0xbd2a8d34	-0.041638568
206	0xbdfd9fb8	-0.123839796
207	0xbf08b578	-0.534019
208	0xbea21814	-0.31658995
209	0xbf66d386	-0.9016651
210	0xbe96eda3	-0.29478177
211	0xbe8abfd3	-0.27099475
212	0x3f571c92	0.8402797
213	0xbf400063	-0.7500059
214	0x3ed04fe8	0.40685964
215	0xbeb757e1	-0.35809234
216	0x3e26166a	0.16219488
217	0xbee7b04e	-0.45251697
218	0x3e8b81cd	0.27247468
219	0xbec71017	-0.38879463
220	0xbe8a7264	-0.27040398
221	0x3f07b87c	0.53015876
222	0xbe81428d	-0.25246087
223	0x3eab4390	0.33449984
224	0xbeabd1da	-0.33558542
225	0x3e942ef2	0.28942066
226	0xbeaa2672	-0.33232456
227	0x3e169efe	0.14709088
228	0xbf17f5d8	-0.593595
229	0x3f1b8b6a	0.60759604
230	0xbdb9280a	-0.0904084
231	0x3e3a22ca	0.18177333
232	0x3dafdac8	0.08586651
233	0x3de0849b	0.109627925
234	0x3d834de0	0.06411338
235	0x3e0a4ddf	0.13506268
236	0xbf3a2cbc	-0.7272451
237	0x3f3404b1	0.7031966
238	0xbe2fab16	-0.17155108
239	0x3dc92f3d	0.09823463
240	0xbd7e9354	-0.06215222
241	0xbcc8661c	-0.024462752
242	0x3def9c51	0.11699737
243	0x3d9934a5	0.07480744
244	0xbf36122d	-0.71121484
245	0x3efd2cb5	0.4944817
246	0xbeaf7b18	-0.342736
247	0xbc0559c4	-0.008139078
248	0xbd3fdbc5	-0.046840448
249	0xbe3d7c01	-0.18504335
250	0xbe317083	-0.17328076
251	0xbe20b7d8	-0.15695131
252	0x3e8f5464	0.27994072
253	0xbe812bcc	-0.25228727
254	0xbd2c0e9c	-0.04200612
255	0xbf8b91db	-1.0903887
